…
e model you are downloading.\nWe can easily observe the general architecture of the model by typing:\nprint(model)\n\n\n\n\n\n\nModel description\n\n\n\nBertForSequenceClassification(\n  (bert): BertModel(\n    \n    &gt;&gt;&gt; This is the first step of the encoding process, use ready made embeddings \n    that will be modified with attention. We can find useful information: \n    - 30522 is the vocab size, there are 30522 entities for which there is a ready \n    made embedding.\n    - 768 is the dimension of the output embeddings\n\n    (embeddings): BertEmbeddings(\n      (word_embeddings): Embedding(30522, 768, padding_idx=0)\n      (position_embeddings): Embedding(512, 768)\n      (token_type_embeddings): Embedding(2, 768)\n      (LayerNorm): LayerNorm((768,), eps=1e-12, elementwise_affine=True)\n      (dropout): Dropout(p=0.1, inplace=False)\n    )\n\n    &gt;&gt;&gt; This is where the attention takes place. You can see that the encoder is a\n    stack of 12 BERTlayers, themselves containing a self attention module. We find \n    again the dimension of the output embeddings: 768\n\n    (encoder): BertEncoder(\n      (layer): ModuleList(\n        (0-11): 12 x BertLayer(\n          (attention): BertAttention(\n            (self): BertSdpaSelfAttention(\n              (query): Linear(in_features=768, out_features=768, bias=True)\n              (key): Linear(in_features=768, out_features=768, bias=True)\n              (value): Linear(in_features=768, out_features=768, bias=True)\n              (dropout): Dropout(p=0.1, inplace=False)\n            )\n            (output): BertSelfOutput(\n              (dense): Linear(in_features=768, out_features=768, bias=True)\n              (LayerNorm): LayerNorm((768,), eps=1e-12, elementwise_affine=True)\n              (dropout): Dropout(p=0.1, inplace=False)\n            )\n          )\n          (intermediate): BertIntermediate(\n            (dense): Linear(in_features=768, out_features=3072, bias=True)\n            (intermediate_act_fn): GELUActivation()\n          )\n          (output): BertOutput(\n            (dense): Linear(in_features=3072, out_features=768, bias=True)\n            (LayerNorm): LayerNorm((768,), eps=1e-12, elementwise_affine=True)\n            (dropout): Dropout(p=0.1, inplace=False)\n          )\n        )\n      )\n    )\n\n    &gt;&gt;&gt; This pooler is the component that will take the embedding of each token in \n    the sequence and produce a unique embedding, supposedly best representing the sequene.\n\n    (pooler): BertPooler(\n      (dense): Linear(in_features=768, out_features=768, bias=True)\n      (activation): Tanh()\n    )\n  )\n  (dropout): Dropout(p=0.1, inplace=False)\n\n  &gt;&gt;&gt; This last component is the classifier layer, a neural network composed of 768 \n  + 3 nodes. The out_features=3 corresponds to the number of labels we are using for \n  annotation! \n\n  (classifier): Linear(in_features=768, out_features=3, bias=True)\n)\n\n\n\n\n\n\n\n\nTips and tricks regarding the model\n\n\n\nThe AutoConfig class is very convenient for retrieveing information that may be difficult to access otherwise. We load it like this:\nfrom transformers import AutoConfig\nprint(AutoConfig.from_pretrained(MODEL_NAME))\nBertConfig {\n  \"architectures\": [\n    \"BertForMaskedLM\"\n  ],\n  \"at
…
on.from_pretrained(\n    MODEL_NAME, \n    num_labels=num_labels,\n    id2label=id2label,\n    label2id=label2id                                            \n)\nclassif_model\n\nSome weights of BertForSequenceClassification were not initialized from the model checkpoint at google-bert/bert-base-uncased and are newly initialized: ['classifier.bias', 'classifier.weight']\nYou should probably TRAIN this model on a down-stream task to be able to use it for predictions and inference.\n\n\nBertForSequenceClassification(\n  (bert): BertModel(\n    (embeddings): BertEmbeddings(\n      (word_embeddings): Embedding(30522, 768, padding_idx=0)\n      (position_embeddings): Embedding(512, 768)\n      (token_type_embeddings): Embedding(2, 768)\n      (LayerNorm): LayerNorm((768,), eps=1e-12, elementwise_affine=True)\n      (dropout): Dropout(p=0.1, inplace=False)\n    )\n    (encoder): BertEncoder(\n      (layer): ModuleList(\n        (0-11): 12 x BertLayer(\n          (attention): BertAttention(\n            (self): BertSdpaSelfAttention(\n              (query): Linear(in_features=768, out_features=768, bias=True)\n              (key): Linear(in_features=768, out_features=768, bias=True)\n              (value): Linear(in_features=768, out_features=768, bias=True)\n              (dropout): Dropout(p=0.1, inplace=False)\n            )\n            (output): BertSelfOutput(\n              (dense): Linear(in_features=768, out_features=768, bias=True)\n              (LayerNorm): LayerNorm((768,), eps=1e-12, elementwise_affine=True)\n              (dropout): Dropout(p=0.1, inplace=False)\n            )\n          )\n          (intermediate): BertIntermediate(\n            (dense): Linear(in_features=768, out_features=3072, bias=True)\n            (intermediate_act_fn): GELUActivation()\n          )\n          (output): BertOutput(\n            (dense): Linear(in_features=3072, out_features=768, bias=True)\n            (LayerNorm): LayerNorm((768,), eps=1e-12, elementwise_affine=True)\n            (dropout): Dropout(p=0.1, inplace=False)\n          )\n        )\n      )\n    )\n    (pooler): BertPooler(\n      (dense): Linear(in_features=768, out_features=768, bias=True)\n      (activation): Tanh()\n    )\n  )\n  (dropout): Dropout(p=0.1, inplace=False)\n  (classifier): Linear(in_features=768, out_features=3, bias=True)\n)\n\n\n\nclassif_model.config\n\nBertConfig {\n  \"architectures\": [\n    \"BertForMaskedLM\"\n  ],\n  \"attention_probs_dropout_prob\": 0.1,\n  \"classifier_dropout\": null,\n  \"gradient_checkpointing\": false,\n  \"hidden_act\": \"gelu\",\n  \"hidden_dropout_prob\": 0.1,\n  \"hidden_size\": 768,\n  \"id2label\": {\n    \"0\": \"Conservative\",\n    
…
nd. Please update jupyter and ipywidgets. See https://ipywidgets.readthedocs.io/en/stable/user_install.html\n  from .autonotebook import tqdm as notebook_tqdm\nSome weights of BertForSequenceClassification were not initialized from the model checkpoint at google-bert/bert-base-uncased and are newly initialized: ['classifier.bias', 'classifier.weight']\nYou should probably TRAIN this model on a down-stream task to be able to use it for predictions and inference.\n\n\n\nprint(model)\n\nBertForSequenceClassification(\n  (bert): BertModel(\n    (embeddings): BertEmbeddings(\n      (word_embeddings): Embedding(30522, 768, padding_idx=0)\n      (position_embeddings): Embedding(512, 768)\n      (token_type_embeddings): Embedding(2, 768)\n      (LayerNorm): LayerNorm((768,), eps=1e-12, elementwise_affine=True)\n      (dropout): Dropout(p=0.1, inplace=False)\n    )\n    (encoder): BertEncoder(\n      (layer): ModuleList(\n        (0-11): 12 x BertLayer(\n          (attention): BertAttention(\n            (self): BertSdpaSelfAttention(\n              (query): Linear(in_features=768, out_features=768, bias=True)\n              (key): Linear(in_features=768, out_features=768, bias=True)\n              (value): Linear(in_features=768, out_features=768, bias=True)\n              (dropout): Dropout(p=0.1, inplace=False)\n            )\n            (output): BertSelfOutput(\n              (dense): Linear(in_features=768, out_features=768, bias=True)\n              (LayerNorm): LayerNorm((768,), eps=1e-12, elementwise_affine=True)\n              (dropout): Dropout(p=0.1, inplace=False)\n            )\n          )\n          (intermediate): BertIntermediate(\n            (dense): Linear(in_features=768, out_features=3072, bias=True)\n            (intermediate_act_fn): GELUActivation()\n          )\n          (output): BertOutput(\n            (dense): Linear(in_features=3072, out_features=768, bias=True)\n            (LayerNorm): LayerNorm((768,), eps=1e-12, elementwise_affine=True)\n            (dropout): Dropout(p=0.1, inplace=False)\n          )\n        )\n      )\n    )\n    (pooler): BertPooler(\n      (dense): Linear(in_features=768, out_features=768, bias=True)\n      (activation): Tanh()\n    )\n  )\n  (dropout): Dropout(p=0.1, inplace=False)\n  (classifier): Linear(in_features=768, out_features=3, bias=True)\n)\n\n\n\nfrom transformers import AutoConfig\nprint(AutoConfig.from_pretrained(MODEL_NAME))\n\nBertConfig {\n  \"architectures\": [\n    \"BertForMaskedLM\"\n  ],\n  \"attention_probs_dropout_prob\": 0.1,\n  \"classifier_dropout\": null,\n  \"gradient_checkpointing\": false,\n  \"hidden_act\": \"gelu\",\n  \"hidden_dropout_prob\": 0.1,\n  \"hidden_size\
…
