…
_Nota: for some models you might need to set `trust_remote_code` to `True`. Make sure you trust the model you are downloading._

We can easily observe the general architecture of the model by typing: 

```python
print(model)
```

:::{.callout-note title="Model description"}
```txt 
BertForSequenceClassification(
  (bert): BertModel(
    
    >>> This is the first step of the encoding process, use ready made embeddings 
    that will be modified with attention. We can find useful information: 
    - 30522 is the vocab size, there are 30522 entities for which there is a ready 
    made embedding.
    - 768 is the dimension of the output embeddings

    (embeddings): BertEmbeddings(
      (word_embeddings): Embedding(30522, 768, padding_idx=0)
      (position_embeddings): Embedding(512, 768)
      (token_type_embeddings): Embedding(2, 768)
      (LayerNorm): LayerNorm((768,), eps=1e-12, elementwise_affine=True)
      (dropout): Dropout(p=0.1, inplace=False)
    )

    >>> This is where the attention takes place. You can see that the encoder is a
    stack of 12 BERTlayers, themselves containing a self attention module. We find 
    again the dimension of the output embeddings: 768

    (encoder): BertEncoder(
      (layer): ModuleList(
        (0-11): 12 x BertLayer(
          (attention): BertAttention(
            (self): BertSdpaSelfAttention(
              (query): Linear(in_features=768, out_features=768, bias=True)
              (key): Linear(in_features=768, out_features=768, bias=True)
              (value): Linear(in_features=768, out_features=768, bias=True)
              (dropout): Dropout(p=0.1, inplace=False)
            )
            (output): BertSelfOutput(
              (dense): Linear(in_features=768, out_features=768, bias=True)
              (LayerNorm): LayerNorm((768,), eps=1e-12, elementwise_affine=True)
              (dropout): Dropout(p=0.1, inplace=False)
            )
          )
          (intermediate): BertIntermediate(
            (dense): Linear(in_features=768, out_features=3072, bias=True)
            (intermediate_act_fn): GELUActivation()
          )
          (output): BertOutput(
            (dense): Linear(in_features=3072, out_features=768, bias=True)
            (LayerNorm): LayerNorm((768,), eps=1e-12, elementwise_affine=True)
            (dropout): Dropout(p=0.1, inplace=False)
          )
        )
      )
    )

    >>> This pooler is the component that will take the embedding of each token in 
    the sequence and produce a unique embedding, supposedly best representing the sequene.

    (pooler): BertPooler(
      (dense): Linear(in_features=768, out_features=768, bias=True)
      (activation): Tanh()
    )
  )
  (dropout): Dropout(p=0.1, inplace=False)

  >>> This last component is the classifier layer, a neural network composed of 768 
  + 3 nodes. The out_features=3 corresponds to the number of label we are using for 
  annotation! 

  (classifier): Linear(in_features=768, out_features=3, bias=True)
)
```

:::

:::{.callout-note title="Tips and tricks regarding the model"}

The `AutoConfig` class is very convenient for retrieveing information that may difficult to get otherwise. We load it like this: 

```python 
from transformers import AutoConfig
AutoConfig.from_pretrained(MODEL_NAME)
```

If you ever wanted to work with another model that has already been fine-tuned and wanted to only train the classification layer, there are two solutions: 
…
